Learning rate:  0.001
Model: "model_1"
__________________________________________________________________________________________________
Layer (type)                    Output Shape         Param #     Connected to                     
==================================================================================================
input (InputLayer)              (None, 6000, 3)      0                                            
__________________________________________________________________________________________________
separable_conv1d_29 (SeparableC (None, 6000, 8)      65          input[0][0]                      
__________________________________________________________________________________________________
max_pooling1d_15 (MaxPooling1D) (None, 3000, 8)      0           separable_conv1d_29[0][0]        
__________________________________________________________________________________________________
separable_conv1d_30 (SeparableC (None, 3000, 16)     216         max_pooling1d_15[0][0]           
__________________________________________________________________________________________________
max_pooling1d_16 (MaxPooling1D) (None, 1500, 16)     0           separable_conv1d_30[0][0]        
__________________________________________________________________________________________________
separable_conv1d_31 (SeparableC (None, 1500, 16)     384         max_pooling1d_16[0][0]           
__________________________________________________________________________________________________
max_pooling1d_17 (MaxPooling1D) (None, 750, 16)      0           separable_conv1d_31[0][0]        
__________________________________________________________________________________________________
separable_conv1d_32 (SeparableC (None, 750, 32)      656         max_pooling1d_17[0][0]           
__________________________________________________________________________________________________
max_pooling1d_18 (MaxPooling1D) (None, 375, 32)      0           separable_conv1d_32[0][0]        
__________________________________________________________________________________________________
separable_conv1d_33 (SeparableC (None, 375, 32)      1216        max_pooling1d_18[0][0]           
__________________________________________________________________________________________________
max_pooling1d_19 (MaxPooling1D) (None, 188, 32)      0           separable_conv1d_33[0][0]        
__________________________________________________________________________________________________
separable_conv1d_34 (SeparableC (None, 188, 64)      2272        max_pooling1d_19[0][0]           
__________________________________________________________________________________________________
max_pooling1d_20 (MaxPooling1D) (None, 94, 64)       0           separable_conv1d_34[0][0]        
__________________________________________________________________________________________________
separable_conv1d_35 (SeparableC (None, 94, 64)       4352        max_pooling1d_20[0][0]           
__________________________________________________________________________________________________
max_pooling1d_21 (MaxPooling1D) (None, 47, 64)       0           separable_conv1d_35[0][0]        
__________________________________________________________________________________________________
batch_normalization_23 (BatchNo (None, 47, 64)       256         max_pooling1d_21[0][0]           
__________________________________________________________________________________________________
activation_19 (Activation)      (None, 47, 64)       0           batch_normalization_23[0][0]     
__________________________________________________________________________________________________
spatial_dropout1d_19 (SpatialDr (None, 47, 64)       0           activation_19[0][0]              
__________________________________________________________________________________________________
conv1d_23 (Conv1D)              (None, 47, 64)       12352       spatial_dropout1d_19[0][0]       
__________________________________________________________________________________________________
batch_normalization_24 (BatchNo (None, 47, 64)       256         conv1d_23[0][0]                  
__________________________________________________________________________________________________
activation_20 (Activation)      (None, 47, 64)       0           batch_normalization_24[0][0]     
__________________________________________________________________________________________________
spatial_dropout1d_20 (SpatialDr (None, 47, 64)       0           activation_20[0][0]              
__________________________________________________________________________________________________
conv1d_24 (Conv1D)              (None, 47, 64)       12352       spatial_dropout1d_20[0][0]       
__________________________________________________________________________________________________
add_18 (Add)                    (None, 47, 64)       0           max_pooling1d_21[0][0]           
                                                                 conv1d_24[0][0]                  
__________________________________________________________________________________________________
batch_normalization_25 (BatchNo (None, 47, 64)       256         add_18[0][0]                     
__________________________________________________________________________________________________
activation_21 (Activation)      (None, 47, 64)       0           batch_normalization_25[0][0]     
__________________________________________________________________________________________________
spatial_dropout1d_21 (SpatialDr (None, 47, 64)       0           activation_21[0][0]              
__________________________________________________________________________________________________
conv1d_25 (Conv1D)              (None, 47, 64)       12352       spatial_dropout1d_21[0][0]       
__________________________________________________________________________________________________
batch_normalization_26 (BatchNo (None, 47, 64)       256         conv1d_25[0][0]                  
__________________________________________________________________________________________________
activation_22 (Activation)      (None, 47, 64)       0           batch_normalization_26[0][0]     
__________________________________________________________________________________________________
spatial_dropout1d_22 (SpatialDr (None, 47, 64)       0           activation_22[0][0]              
__________________________________________________________________________________________________
conv1d_26 (Conv1D)              (None, 47, 64)       12352       spatial_dropout1d_22[0][0]       
__________________________________________________________________________________________________
add_19 (Add)                    (None, 47, 64)       0           add_18[0][0]                     
                                                                 conv1d_26[0][0]                  
__________________________________________________________________________________________________
batch_normalization_27 (BatchNo (None, 47, 64)       256         add_19[0][0]                     
__________________________________________________________________________________________________
activation_23 (Activation)      (None, 47, 64)       0           batch_normalization_27[0][0]     
__________________________________________________________________________________________________
spatial_dropout1d_23 (SpatialDr (None, 47, 64)       0           activation_23[0][0]              
__________________________________________________________________________________________________
conv1d_27 (Conv1D)              (None, 47, 64)       12352       spatial_dropout1d_23[0][0]       
__________________________________________________________________________________________________
batch_normalization_28 (BatchNo (None, 47, 64)       256         conv1d_27[0][0]                  
__________________________________________________________________________________________________
activation_24 (Activation)      (None, 47, 64)       0           batch_normalization_28[0][0]     
__________________________________________________________________________________________________
spatial_dropout1d_24 (SpatialDr (None, 47, 64)       0           activation_24[0][0]              
__________________________________________________________________________________________________
conv1d_28 (Conv1D)              (None, 47, 64)       12352       spatial_dropout1d_24[0][0]       
__________________________________________________________________________________________________
add_20 (Add)                    (None, 47, 64)       0           add_19[0][0]                     
                                                                 conv1d_28[0][0]                  
__________________________________________________________________________________________________
batch_normalization_29 (BatchNo (None, 47, 64)       256         add_20[0][0]                     
__________________________________________________________________________________________________
activation_25 (Activation)      (None, 47, 64)       0           batch_normalization_29[0][0]     
__________________________________________________________________________________________________
spatial_dropout1d_25 (SpatialDr (None, 47, 64)       0           activation_25[0][0]              
__________________________________________________________________________________________________
conv1d_29 (Conv1D)              (None, 47, 64)       8256        spatial_dropout1d_25[0][0]       
__________________________________________________________________________________________________
batch_normalization_30 (BatchNo (None, 47, 64)       256         conv1d_29[0][0]                  
__________________________________________________________________________________________________
activation_26 (Activation)      (None, 47, 64)       0           batch_normalization_30[0][0]     
__________________________________________________________________________________________________
spatial_dropout1d_26 (SpatialDr (None, 47, 64)       0           activation_26[0][0]              
__________________________________________________________________________________________________
conv1d_30 (Conv1D)              (None, 47, 64)       8256        spatial_dropout1d_26[0][0]       
__________________________________________________________________________________________________
add_21 (Add)                    (None, 47, 64)       0           add_20[0][0]                     
                                                                 conv1d_30[0][0]                  
__________________________________________________________________________________________________
batch_normalization_31 (BatchNo (None, 47, 64)       256         add_21[0][0]                     
__________________________________________________________________________________________________
activation_27 (Activation)      (None, 47, 64)       0           batch_normalization_31[0][0]     
__________________________________________________________________________________________________
spatial_dropout1d_27 (SpatialDr (None, 47, 64)       0           activation_27[0][0]              
__________________________________________________________________________________________________
conv1d_31 (Conv1D)              (None, 47, 64)       8256        spatial_dropout1d_27[0][0]       
__________________________________________________________________________________________________
batch_normalization_32 (BatchNo (None, 47, 64)       256         conv1d_31[0][0]                  
__________________________________________________________________________________________________
activation_28 (Activation)      (None, 47, 64)       0           batch_normalization_32[0][0]     
__________________________________________________________________________________________________
spatial_dropout1d_28 (SpatialDr (None, 47, 64)       0           activation_28[0][0]              
__________________________________________________________________________________________________
conv1d_32 (Conv1D)              (None, 47, 64)       8256        spatial_dropout1d_28[0][0]       
__________________________________________________________________________________________________
add_22 (Add)                    (None, 47, 64)       0           add_21[0][0]                     
                                                                 conv1d_32[0][0]                  
__________________________________________________________________________________________________
bidirectional_5 (Bidirectional) (None, 47, 32)       10368       add_22[0][0]                     
__________________________________________________________________________________________________
conv1d_33 (Conv1D)              (None, 47, 16)       528         bidirectional_5[0][0]            
__________________________________________________________________________________________________
batch_normalization_33 (BatchNo (None, 47, 16)       64          conv1d_33[0][0]                  
__________________________________________________________________________________________________
bidirectional_6 (Bidirectional) (None, 47, 32)       4224        batch_normalization_33[0][0]     
__________________________________________________________________________________________________
conv1d_34 (Conv1D)              (None, 47, 16)       528         bidirectional_6[0][0]            
__________________________________________________________________________________________________
batch_normalization_34 (BatchNo (None, 47, 16)       64          conv1d_34[0][0]                  
__________________________________________________________________________________________________
attentionD0 (SeqSelfAttention)  [(None, 47, 16), (No 1089        batch_normalization_34[0][0]     
__________________________________________________________________________________________________
add_23 (Add)                    (None, 47, 16)       0           batch_normalization_34[0][0]     
                                                                 attentionD0[0][0]                
__________________________________________________________________________________________________
layer_normalization_9 (LayerNor (None, 47, 16)       32          add_23[0][0]                     
__________________________________________________________________________________________________
feed_forward_5 (FeedForward)    (None, 47, 16)       4240        layer_normalization_9[0][0]      
__________________________________________________________________________________________________
add_24 (Add)                    (None, 47, 16)       0           layer_normalization_9[0][0]      
                                                                 feed_forward_5[0][0]             
__________________________________________________________________________________________________
layer_normalization_10 (LayerNo (None, 47, 16)       32          add_24[0][0]                     
__________________________________________________________________________________________________
attentionD (SeqSelfAttention)   [(None, 47, 16), (No 1089        layer_normalization_10[0][0]     
__________________________________________________________________________________________________
add_25 (Add)                    (None, 47, 16)       0           layer_normalization_10[0][0]     
                                                                 attentionD[0][0]                 
__________________________________________________________________________________________________
layer_normalization_11 (LayerNo (None, 47, 16)       32          add_25[0][0]                     
__________________________________________________________________________________________________
feed_forward_6 (FeedForward)    (None, 47, 16)       4240        layer_normalization_11[0][0]     
__________________________________________________________________________________________________
add_26 (Add)                    (None, 47, 16)       0           layer_normalization_11[0][0]     
                                                                 feed_forward_6[0][0]             
__________________________________________________________________________________________________
layer_normalization_12 (LayerNo (None, 47, 16)       32          add_26[0][0]                     
__________________________________________________________________________________________________
lstm_7 (LSTM)                   (None, 47, 16)       2112        layer_normalization_12[0][0]     
__________________________________________________________________________________________________
lstm_8 (LSTM)                   (None, 47, 16)       2112        layer_normalization_12[0][0]     
__________________________________________________________________________________________________
attentionP (SeqSelfAttention)   [(None, 47, 16), (No 1089        lstm_7[0][0]                     
__________________________________________________________________________________________________
attentionS (SeqSelfAttention)   [(None, 47, 16), (No 1089        lstm_8[0][0]                     
__________________________________________________________________________________________________
up_sampling1d_15 (UpSampling1D) (None, 94, 16)       0           layer_normalization_12[0][0]     
__________________________________________________________________________________________________
up_sampling1d_22 (UpSampling1D) (None, 94, 16)       0           attentionP[0][0]                 
__________________________________________________________________________________________________
up_sampling1d_29 (UpSampling1D) (None, 94, 16)       0           attentionS[0][0]                 
__________________________________________________________________________________________________
separable_conv1d_36 (SeparableC (None, 94, 64)       1136        up_sampling1d_15[0][0]           
__________________________________________________________________________________________________
separable_conv1d_43 (SeparableC (None, 94, 64)       1136        up_sampling1d_22[0][0]           
__________________________________________________________________________________________________
separable_conv1d_50 (SeparableC (None, 94, 64)       1136        up_sampling1d_29[0][0]           
__________________________________________________________________________________________________
up_sampling1d_16 (UpSampling1D) (None, 188, 64)      0           separable_conv1d_36[0][0]        
__________________________________________________________________________________________________
up_sampling1d_23 (UpSampling1D) (None, 188, 64)      0           separable_conv1d_43[0][0]        
__________________________________________________________________________________________________
up_sampling1d_30 (UpSampling1D) (None, 188, 64)      0           separable_conv1d_50[0][0]        
__________________________________________________________________________________________________
separable_conv1d_37 (SeparableC (None, 188, 64)      4480        up_sampling1d_16[0][0]           
__________________________________________________________________________________________________
separable_conv1d_44 (SeparableC (None, 188, 64)      4480        up_sampling1d_23[0][0]           
__________________________________________________________________________________________________
separable_conv1d_51 (SeparableC (None, 188, 64)      4480        up_sampling1d_30[0][0]           
__________________________________________________________________________________________________
up_sampling1d_17 (UpSampling1D) (None, 376, 64)      0           separable_conv1d_37[0][0]        
__________________________________________________________________________________________________
up_sampling1d_24 (UpSampling1D) (None, 376, 64)      0           separable_conv1d_44[0][0]        
__________________________________________________________________________________________________
up_sampling1d_31 (UpSampling1D) (None, 376, 64)      0           separable_conv1d_51[0][0]        
__________________________________________________________________________________________________
separable_conv1d_38 (SeparableC (None, 376, 32)      2400        up_sampling1d_17[0][0]           
__________________________________________________________________________________________________
separable_conv1d_45 (SeparableC (None, 376, 32)      2400        up_sampling1d_24[0][0]           
__________________________________________________________________________________________________
separable_conv1d_52 (SeparableC (None, 376, 32)      2400        up_sampling1d_31[0][0]           
__________________________________________________________________________________________________
up_sampling1d_18 (UpSampling1D) (None, 752, 32)      0           separable_conv1d_38[0][0]        
__________________________________________________________________________________________________
up_sampling1d_25 (UpSampling1D) (None, 752, 32)      0           separable_conv1d_45[0][0]        
__________________________________________________________________________________________________
up_sampling1d_32 (UpSampling1D) (None, 752, 32)      0           separable_conv1d_52[0][0]        
__________________________________________________________________________________________________
cropping1d_3 (Cropping1D)       (None, 750, 32)      0           up_sampling1d_18[0][0]           
__________________________________________________________________________________________________
cropping1d_4 (Cropping1D)       (None, 750, 32)      0           up_sampling1d_25[0][0]           
__________________________________________________________________________________________________
cropping1d_5 (Cropping1D)       (None, 750, 32)      0           up_sampling1d_32[0][0]           
__________________________________________________________________________________________________
separable_conv1d_39 (SeparableC (None, 750, 32)      1280        cropping1d_3[0][0]               
__________________________________________________________________________________________________
separable_conv1d_46 (SeparableC (None, 750, 32)      1280        cropping1d_4[0][0]               
__________________________________________________________________________________________________
separable_conv1d_53 (SeparableC (None, 750, 32)      1280        cropping1d_5[0][0]               
__________________________________________________________________________________________________
up_sampling1d_19 (UpSampling1D) (None, 1500, 32)     0           separable_conv1d_39[0][0]        
__________________________________________________________________________________________________
up_sampling1d_26 (UpSampling1D) (None, 1500, 32)     0           separable_conv1d_46[0][0]        
__________________________________________________________________________________________________
up_sampling1d_33 (UpSampling1D) (None, 1500, 32)     0           separable_conv1d_53[0][0]        
__________________________________________________________________________________________________
separable_conv1d_40 (SeparableC (None, 1500, 16)     752         up_sampling1d_19[0][0]           
__________________________________________________________________________________________________
separable_conv1d_47 (SeparableC (None, 1500, 16)     752         up_sampling1d_26[0][0]           
__________________________________________________________________________________________________
separable_conv1d_54 (SeparableC (None, 1500, 16)     752         up_sampling1d_33[0][0]           
__________________________________________________________________________________________________
up_sampling1d_20 (UpSampling1D) (None, 3000, 16)     0           separable_conv1d_40[0][0]        
__________________________________________________________________________________________________
up_sampling1d_27 (UpSampling1D) (None, 3000, 16)     0           separable_conv1d_47[0][0]        
__________________________________________________________________________________________________
up_sampling1d_34 (UpSampling1D) (None, 3000, 16)     0           separable_conv1d_54[0][0]        
__________________________________________________________________________________________________
separable_conv1d_41 (SeparableC (None, 3000, 16)     416         up_sampling1d_20[0][0]           
__________________________________________________________________________________________________
separable_conv1d_48 (SeparableC (None, 3000, 16)     416         up_sampling1d_27[0][0]           
__________________________________________________________________________________________________
separable_conv1d_55 (SeparableC (None, 3000, 16)     416         up_sampling1d_34[0][0]           
__________________________________________________________________________________________________
up_sampling1d_21 (UpSampling1D) (None, 6000, 16)     0           separable_conv1d_41[0][0]        
__________________________________________________________________________________________________
up_sampling1d_28 (UpSampling1D) (None, 6000, 16)     0           separable_conv1d_48[0][0]        
__________________________________________________________________________________________________
up_sampling1d_35 (UpSampling1D) (None, 6000, 16)     0           separable_conv1d_55[0][0]        
__________________________________________________________________________________________________
separable_conv1d_42 (SeparableC (None, 6000, 8)      312         up_sampling1d_21[0][0]           
__________________________________________________________________________________________________
separable_conv1d_49 (SeparableC (None, 6000, 8)      312         up_sampling1d_28[0][0]           
__________________________________________________________________________________________________
separable_conv1d_56 (SeparableC (None, 6000, 8)      312         up_sampling1d_35[0][0]           
__________________________________________________________________________________________________
detector (Conv1D)               (None, 6000, 1)      89          separable_conv1d_42[0][0]        
__________________________________________________________________________________________________
picker_P (Conv1D)               (None, 6000, 1)      89          separable_conv1d_49[0][0]        
__________________________________________________________________________________________________
picker_S (Conv1D)               (None, 6000, 1)      89          separable_conv1d_56[0][0]        
==================================================================================================
Total params: 184,416
Trainable params: 183,072
Non-trainable params: 1,344
__________________________________________________________________________________________________
Started training in generator mode ...
Epoch 1/10
Learning rate:  0.001
6000/6000 
…
